models/RNN/trained_models/GRU.pth (torch, 600419 bytes, 10 tensors)

rnn.weight_ih_l0 f4 [384, 1]
00000000: 0657 87bd d41d 203c d9ef 95bd 42cc 9d3d
00000010: a9ff 2cbd dbec 1abd 88a7 aebd 3f1d 0e3c
00000020: 80eb adbc 881d 8a3c 9cd9 28bd d8a6 b6bd
00000030: 1d8c c33b d2e6 dabd e989 f33a d2dd 483d
00000040: caea b7bd b38b 2a3d b219 b6bd 6116 9fbd
00000050: 2662 a83d b784 753d a12c a6bd 0106 853d
00000060: ca83 3dbd 7c04 5a3d 3dd8 febc 86db 6e3c
00000070: 6cab 573d eb36 303d 34aa 413c 2d9d 7f3d
00000080: d27e 193d 1042 94bd 3584 84bd c984 adbd
00000090: 7e95 1dbd 1a2a 1fbd ec39 373d 6f6f cebc
000000a0: d3ac a33d 621a bcbc e38e 5d3b 4ac3 d5bd
000000b0: b9cf 4d3d 4845 883d 9b4e 773b 8e99 2fbd
000000c0: 1548 b2bd f189 3c3c dc87 b0bd 5842 823d
000000d0: d951 91bd b1fd 5abd 6d89 4cbc 6fd8 8bbd
000000e0: d34f a1bd fe76 353d 9437 253d 0dee bb3b
000000f0: 8a32 abbc 4564 e73c 47bc 06bd e756 52bc
00000100: fc0f 46bd b031 9fbc 0f77 093d 41ab 5f3d
00000110: a76a 013d 57c5 313d b394 bdbd 9066 c43d
00000120: 95c5 82bd e42a 99bd a1ec 823c df32 b9bc
00000130: 1a1a fcbc 64c8 84bd 7489 d53c 1f58 693d
00000140: 8cd1 8e3c 67aa 9abd 5867 61bd cdcf a3bd
00000150: a7b3 93bc c8a5 fabc f989 37bd 724d 173d
00000160: 0a11 b0bd 2231 23bd b79e 8cbd 8983 08bd
00000170: 0968 a6bd 14df 193d d1a7 21bd 071e 1cbd
00000180: 1a6c 2abd 662b 063c db8d 983d 1441 853d
00000190: cecb cbbc fd90 57bc 8c4a 823d f766 8a3d
000001a0: 22dd 6dbd 2ede 3fbd 9de9 a5bc 16b2 5ebd
000001b0: e29e ab3d fe46 58bd ec87 e9ba 9d1d 6d3a
000001c0: e241 a33d 65e8 a93d e262 93bd 2c57 723d
000001d0: 0994 a5bd 03df df3c f9c0 8e3d a43e bebd
000001e0: 4507 ac3d 816a 863d 30ba 9e3d 4c40 db3c
000001f0: ebf9 ab3d 9f4a 73bd 45b2 5e3d 6fd7 9c3b
00000200: a250 54bd 10b1 c9bc d742 e7ba 79bb 7cbd
00000210: 9d72 a6bb de4b 2b3d 7e59 57bd f1e0 c33a
00000220: 9fef e1bc b5a6 c8bd 27da ba3d df55 923d
00000230: 1b2c aa3d 4677 a53d 5af4 81bc 54c7 0ebd
00000240: 8009 273d c2d6 603d 200a a7ba 8076 893d
00000250: b612 043d 898d 763d 486e 7bbd 9085 4f3d
00000260: 8a20 b1bd 8685 56bd b315 853d 47c9 9e3c
00000270: e396 09bd 654a 8f3d 91a6 aa3b d883 a03d
00000280: 9085 6e3d f0ad c1bd 8767 e43c 8400 7c3d
00000290: 1ab9 e3bc 6fc6 f4bc 905b 44bd 2613 913d
000002a0: a486 bfbc a916 a93d 5b79 2e3d d3db 60bd
000002b0: 4593 99bb cbfc c8bc 031f 233d 1513 0f3d
000002c0: f484 eabc d031 b03d 863e 69bd 24c5 97bd
000002d0: 037b d5ba cb5a 50bc fe26 073d 853a 5cbd
000002e0: a148 873d 14fb b13d 2b7a 6bbc a3e0 1b3d
000002f0: dd8e 44bb 748f bf3c ea9a 1c3d de93 bb3d
00000300: 1d65 af3d 420d 72bd 3eba 6d3d 2b56 a23d
00000310: 48e3 bbbc 9354 8a3d 6ebc 66bd c9d0 3fbd
00000320: c248 883c 23b0 03ba 8014 633d 4bfd c43d
00000330: ae62 af3d 4977 91ba 30a5 caba 253d 923d
00000340: a7cc 8bbd c3c0 c93c 6113 dc3c 8954 22bd
00000350: 255f 9c3d 6482 02bd 81df 813d 62e4 7c3d
00000360: de91 9a3d 4281 e13c 3a18 8d3c 608f 923d
00000370: 2f2b 3cbd 2a47 023d b1ff 47bc abbb 2dbd
00000380: ee4e af3c cd8d 3cbd 34d2 373d 8ca2 8dbd
00000390: b02f 963d 3e5a 223b a392 3abc b689 193d
000003a0: 5ea3 413d a593 edbc 8bd4 bf3d ba8f 1b3d
000003b0: 7432 0e3d 6fb6 48bd 57de e3bc cff5 9b3d
000003c0: 6c0b d53c 4849 a53d e835 08bd 8206 a1bd
000003d0: c222 7fbd 0361 71bd b90f 1fbd 5cd4 8dbc
000003e0: 3389 2a3d aa7f b83d a680 75bd aa88 79b9
000003f0: cba4 50bd 126b 41bc 709d 41bb be5a 56bd
-0.06608395 0.009772737 -0.07321138 0.07704975 -0.042236004 -0.03782354 -0.08528048 0.008673965
-0.02123046 0.016859785 -0.041223153 -0.08918542 0.0059676305 -0.10688557 0.0018580529 0.04903967
-0.08980329 0.041637134 -0.0889162 -0.0776794 0.08221845 0.05994102 -0.08113981 0.06495286
-0.046268262 0.053226933 -0.03110897 0.014578706 0.052653715 0.043021124 0.011820365 0.062405754
0.03747446 -0.07239163 -0.06470529 -0.084725924 -0.038472645 -0.03885851 0.044732973 -0.02519962
0.07991948 -0.022961799 0.003380709 -0.10437639 0.050246928 0.06653839 0.0037736061 -0.04287105
-0.08705155 0.011507497 -0.08619663 0.0636031 -0.07095689 -0.053464595 -0.012483937 -0.06828391
-0.078765534 0.044302933 0.040336207 0.005735165 -0.020898122 0.028246054 -0.0328944 -0.012838102
-0.048355088 -0.019432873 0.03356081 0.05460668 0.031595852 0.04340109 -0.09256878 0.09589875
-0.06385342 -0.07478884 0.015981974 -0.022607265 -0.030774165 -0.06483534 0.02606652 0.056968804
0.017433904 -0.07552033 -0.055030197 -0.07998619 -0.01803 -0.030596629 -0.044809315 0.036939092
-0.08597 -0.03984178 -0.0686621 -0.033328567 -0.08125312 0.03756626 -0.039466683 -0.038114574
-0.041607 0.008189058 0.07448932 0.06506553 -0.024877455 -0.0131571265 0.06361875 0.0675792
-0.058072217 -0.046842746 -0.020252997 -0.054369055 0.08379914 -0.05280208 -0.0017816997 0.0009045245
0.079715505 0.08296279 -0.07196595 0.059165165 -0.08084876 0.02732802 0.069704 -0.092892915
0.08399824 0.06563283 0.07750356 0.026764058 0.083972774 -0.059397336 0.05436923 0.004786424
-0.05183471 -0.024620563 -0.0017643821 -0.061702225 -0.005079581 0.0418204 -0.05257558 0.0014944357
-0.02758008 -0.09797422 0.091236405 0.07145285 0.08309194 0.0807939 -0.015863586 -0.034858063
0.040780544 0.05489231 -0.0012744106 0.06712055 0.032244407 0.060193572 -0.06138447 0.050664485
-0.086487845 -0.05237343 0.064982794 0.019383086 -0.033591162 0.069966115 0.0052078445 0.07837647
0.058232844 -0.09457004 0.027881397 0.06152393 -0.027798224 -0.029879777 -0.047938883 0.070837304
-0.023379631 0.08256275 0.042596202 -0.05489714 -0.0046867453 -0.024534604 0.039824497 0.034930307
-0.02862785 0.08603251 -0.056944393 -0.074106485 -0.0016287271 -0.012716959 0.03299617 -0.053766746
0.0660565 0.086904675 -0.014372389 0.038056027 -0.002999238 0.023383833 0.038233675 0.09159063
0.08564208 -0.059094675 0.058038943 0.079265915 -0.022935525 0.067544125 -0.056332044 -0.046829972
0.016636256 -0.00050235 0.055439472 0.09618624 0.085637435 -0.0011098172 -0.0015460607 0.07140569
-0.06826144 0.024628049 0.02686471 -0.0396314 0.07635335 -0.03186263 0.06341458 0.06174124
0.07547353 0.027527455 0.017223466 0.07156253 -0.04593962 0.03180615 -0.012206958 -0.042415302
0.021399941 -0.04603367 0.0448782 -0.06915769 0.073333144 0.0024773027 -0.0113875 0.037484847
0.04727494 -0.029001066 0.09366711 0.037978865 0.034716085 -0.049002107 -0.02781598 0.07615244
0.026006423 0.08070618 -0.033254534 -0.078625694 -0.062289007 -0.05893041 -0.038833354 -0.017313175
0.04163475 0.09008725 -0.05993714 -0.00023797402 -0.05093841 -0.011805313 -0.0029543303 -0.052332632

rnn.weight_hh_l0 f4 [384, 128]
00000000: a9d7 76bc d253 12bd 1fda 353d b0a5 05bc
00000010: 6193 59bd c542 4c3d 0192 973d 8c9f 88bd
00000020: c626 243d b8ca a6bd 2cd9 a43c e0b2 b3bd
00000030: 0895 6cbd ffa7 4c3d a98c a1bd cea8 883d
00000040: b198 8ebc 36c7 d7bc e38b 8cbd 5505 aa3d
00000050: 4c02 bb3d 145e b1bc de9d 6cbc 5c23 623d
00000060: 77b3 933d 10f3 1bbd bb0b 3c3d 3fad da3c
00000070: c9a3 6d3d e57e a03d 995c 9dbd 1f0b 973c
00000080: b772 31bc d50c a5bc 182c 683d 3ac1 9d3c
00000090: 3b10 edbc c48f 803c a6fc 943c 8887 8e3d
000000a0: cd46 a83d 1714 a4bd 15d4 933d db98 193d
000000b0: a850 8bbd 3e1d 4b3d 3a05 62bd 89fc 4bbc
000000c0: 9c80 82bd eda5 fa3c adbe 84bc bb6b 1ebd
000000d0: 6123 6dbd 9b9a 60bd f300 933d fa19 9dbd
000000e0: a51b 2c3d 1ebc 2e3d 11df 973d 0b99 6fbd
000000f0: c1e5 4f3c f025 79bd 2167 dabc b198 633d
00000100: 8590 433d 7900 c43c 26b5 b23d c43e 84bd
00000110: 8cd0 4a3d fa28 d8bb e93a efbc 6841 a8bd
00000120: 028d 3ebd 5bc5 9b3d 906d 43bd b453 8fbd
00000130: 075f 8abc 5c95 2fbd d7da 5c3c 24dd 9cbd
00000140: 09ef 8c3d 0131 7b3d 8e90 a6bd 9b51 bd3c
00000150: 1cc9 84bc 66b0 a4bc 6bbc 5b3d 7548 433c
00000160: 4952 85bd 665f 02bd 800c bb3d 858d 823d
00000170: a307 6fbc 477f 92bd f2f2 273d 0ee7 85bb
00000180: c95b 6ebd ffc3 8e3c 4b30 f43c fc69 98bd
00000190: bcef cfbb c140 9fbd 1dfc bb3d 3653 33bd
000001a0: 5674 86bd 4c3f d03c d4f5 a73c 00ab 9e3d
000001b0: 05dd 023d 3482 d2bb c05a ed3c b66a 9d3c
000001c0: 70a6 9abd e203 4bbd 9372 bdbc 4abe 583d
000001d0: 2d05 55bc 5481 653d e8f2 fc3b c4da 90bd
000001e0: f285 ca3a 45bd a9bd 33dc a83d 9c80 92bd
000001f0: ab0a a83c c1d9 0c3d 68d7 423d 43dc 313d
00000200: 2c54 253c e9c0 0a3d 5db1 a63d a4f0 2bbd
00000210: 9b44 4cbd 7063 713c 7e5b 79bd 2987 833c
00000220: 253f 6abd ebb3 513d c457 97bd 5055 2abd
00000230: d1d4 003d dcf2 95bb c275 2abb 869b 383c
00000240: d088 bb3d c57c 913d 843b e6bc f5c1 8e3d
00000250: 73f0 5dbd 87f8 7c3b 0de5 a43d b121 0a3d
00000260: 7ab5 203d 4dd6 01bd 2343 9fbd 1a69 303d
00000270: 48e5 333d 96aa cbbc 3b5e 113d 3ce6 233d
00000280: 1126 40bd fbd8 4bbd 27ff 903d c448 3dbd
00000290: 7e0c 8dbd 5647 97bd 247a 8a3c 8a91 5fbb
000002a0: 2fb1 d1bc 6e25 3dbd 892e 1abd 8f88 63bc
000002b0: bd34 833d 5e4f 3b3d 75f2 a63c fc80 243b
000002c0: 3cdd 81bd bf51 fabb d7cf 583d 4e2b 5a3d
000002d0: e94d 343c f56b bfbd e369 0e3d 3149 62bd
000002e0: 06bd 743d 9416 9abc 1e9c a6bd d4df d4bb
000002f0: 3578 7dbd 1f5d 8cbc e0d7 c0bd 58ef 07bd
00000300: 0061 a03d 71a2 573d bd47 8dbd 03a6 b73c
00000310: 05a4 8fbd 63ff 403d 2c72 983d 98c2 c23a
00000320: e199 b43d 0fcb 73bd 636d e8bc c196 04bd
00000330: ed14 b13d dacc a0bd 87f9 61bc cc52 163d
00000340: a0a2 993d 2151 2a3d 2de0 6fbd 7982 cbbb
00000350: 1062 98bc 9eef 2e3c de2f 48bd 64d5 ccbb
00000360: 421f 883d 2d33 6c3d 847e 003c a9d0 49bb
00000370: 5098 353d 33df a03d b235 8a3c 8906 68bc
00000380: c48e 92bd 46e6 9bbc a78b 2b3d 930c 523d
00000390: d8ba 73bd 9e09 39bd f45b 2bbc 9856 a23d
000003a0: 6f82 1abd 7ed0 69bd c74d 293d e302 863d
000003b0: 6ea9 fabb da70 a0bd 4e0c 5abd 2320 d9bb
000003c0: ed7b d23c f4d0 42bc 1d87 3a3d b4bc 373d
000003d0: cae0 3fbc a7dc dcbc 1678 9a3d 4229 2a3b
000003e0: fb2d 7abd 5d28 513b f3a7 94bd f7a4 883d
000003f0: 5518 26bc 9716 99bd 57d0 5cbd 91b2 9bbd
-0.015066066 -0.03572447 0.04439747 -0.008157179 -0.053119067 0.049868364 0.07400895 -0.06671056
0.04007604 -0.08144134 0.020123087 -0.08774352 -0.057759315 0.0499649 -0.07888157 0.06672822
-0.017406793 -0.026340108 -0.06862619 0.08301798 0.091312975 -0.021651305 -0.014441935 0.055209503
0.072119646 -0.0380736 0.045909625 0.026693938 0.058017526 0.07836703 -0.07683677 0.01843792
-0.010830573 -0.02014772 0.056682676 0.019257177 -0.028938403 0.015693553 0.018186878 0.06959444
0.08216629 -0.08011644 0.07218186 0.03749929 -0.06802493 0.049588434 -0.055180766 -0.012450346
-0.063721865 0.030596698 -0.016204203 -0.03867696 -0.057895068 -0.054834943 0.071779154 -0.0767097
0.04201855 0.04265987 0.074155934 -0.058495563 0.012689055 -0.060827196 -0.026660504 0.05556554
0.047745246 0.023926007 0.087259576 -0.06457284 0.049515292 -0.0065966817 -0.029202895 -0.082156
-0.046521194 0.07606002 -0.04771191 -0.06998387 -0.016891016 -0.04286705 0.01347991 -0.07659367
0.0688153 0.06132603 -0.0813304 0.023110202 -0.016209178 -0.020103645 0.053646486 0.011919131
-0.06509835 -0.03182926 0.091332436 0.06374649 -0.014589223 -0.071531825 0.041003175 -0.0040863818
-0.058193002 0.017427443 0.029808184 -0.0744209 -0.0063457172 -0.07776023 0.09178946 -0.043780528
-0.06565158 0.025420807 0.020502962 0.077474594 0.031949062 -0.006424213 0.028973937 0.019215923
-0.07551277 -0.04956425 -0.023125922 0.05291585 -0.013001722 0.05603154 0.0077193864 -0.07072976
0.0015451296 -0.082880534 0.08245125 -0.071534365 0.0205129 0.034387354 0.04756871 0.04342295
0.010090869 0.03387538 0.08139298 -0.04197754 -0.049870115 0.01473318 -0.06087827 0.01605566
-0.057189126 0.051196974 -0.07389787 -0.041585267 0.031452958 -0.0045760702 -0.002601013 0.011267548
0.09156954 0.07103876 -0.028104551 0.06970588 -0.05418439 0.0038600282 0.080515005 0.033723537
0.03923557 -0.031698514 -0.07776477 0.043068983 0.04391983 -0.024861615 0.035490256 0.04001449
-0.046911303 -0.049767476 0.070799164 -0.046211973 -0.06887148 -0.07386653 0.016903944 -0.0034113848
-0.025597183 -0.046178274 -0.037642036 -0.013887539 0.064065434 0.045729987 0.020379284 0.0025101295
-0.06341025 -0.0076391394 0.052932587 0.053263955 0.011004903 -0.09346763 0.03476895 -0.055245582
0.05975058 -0.018809594 -0.08135246 -0.006496409 -0.061882216 -0.017134247 -0.09416175 -0.03318724
0.07831001 0.05264515 -0.068984486 0.022418028 -0.07013706 0.047118556 0.074436516 0.0014859019
0.088184126 -0.059519824 -0.028372472 -0.032370333 0.086465694 -0.07851572 -0.013792402 0.036700055
0.075017214 0.041581277 -0.0585634 -0.006210622 -0.018601447 0.010677246 -0.048873775 -0.006251024
0.06646587 0.057665993 0.007842664 -0.0030794537 0.04433471 0.07855072 0.016871307 -0.014161714
-0.07156137 -0.019030701 0.04188123 0.051281523 -0.05950436 -0.045175187 -0.010458935 0.07926673
-0.037722047 -0.0570836 0.04133394 0.06543519 -0.007649592 -0.07834025 -0.05323439 -0.0066261454
0.025693858 -0.011890639 0.04553901 0.044857696 -0.011711309 -0.026960684 0.07542436 0.0025964533
-0.061079007 0.0031914928 -0.07258596 0.066720895 -0.010137637 -0.07475012 -0.053909626 -0.07602418

rnn.bias_ih_l0 f4 [384]
00000000: 5dc2 0dbd ced4 bf3d 335e 0dbc 0995 c13d
00000010: 8924 8239 d3f0 22bd f8fa 3abd 0849 333d
00000020: 3824 283d 21a7 60bd 417e 81bc f964 393b
00000030: f352 aebc 3e60 9ebd 24ff 063b 23d9 a83d
00000040: 4743 c73a 4a2e a43d 23f2 7dbd 357d 60bd
00000050: c002 b33d 8be3 1e3d c8aa c1bd 13ec 71bd
00000060: 6095 2bbd f832 afba 93e8 17bc f7da 31bd
00000070: b211 adbd a133 4f3d 7604 5bbd 7bc6 903d
00000080: 86d0 553c b7f8 893d e1bc bebd d4a7 1d3c
00000090: 4b1c b93c 5f07 99bd 88b8 cf3c 54a7 41bd
000000a0: a452 82bc f1ce 7f3d 74bb 69bc 791a 733d
000000b0: 7730 773d bf74 c83d 5196 d43b 0204 bebd
000000c0: 52f4 723d 9749 743d 5ed7 8cbd 5655 1abd
000000d0: c5e7 a33b 1a46 c2bc f09d 9dbd 84b3 123c
000000e0: 9946 a43c 4ae4 90bd 3a6f b63c 96f7 bcbc
000000f0: 39ee 8f3d 99a5 e9bc bf0c 413d dede b33c
00000100: d6cd 943d 5114 c0bd 436b 9f3c d642 aebd
00000110: 95f0 8abd d1a3 1e3d 5f14 673d 3a29 4dbd
00000120: 6fef 06bc f5d7 223d 19b1 853d fec9 39bd
00000130: cf18 9cbd 6162 27bd 2b15 e93c db9d b53d
00000140: 9c6c b4bc f3a4 f6bc 5937 c43d eccf a1bd
00000150: 1c1d 70bc 33d2 3ebd fb5c 99bd 841a 493d
00000160: 3a5c 95bd d021 6f3c ef02 7d3d 2797 323d
00000170: 744f a3bd 6ce4 07bc c473 e0bb 28e6 b13d
00000180: 293e 8abd 7292 23bc d4b3 563c 1fef b83c
00000190: 2208 6cbc 2987 a2bd f22b 86bd e15c 71bb
000001a0: 31e5 04bd 02ba 903d fb76 9bbc df15 c03c
000001b0: 094a bc3d 0fb1 86bd ace7 cc39 2f4e 7fbb
000001c0: 1bca d03c 9787 b6bc ff96 21bd 3a89 6fbd
000001d0: 0355 41bd a9b6 f4bc a4c2 c2bc c332 53bd
000001e0: ec56 913c 3eb2 533d fd00 9ebd bcbf 253d
000001f0: e1c3 e93c 13fd adbc 9aed 843d 5a63 2ebd
00000200: 78f3 133c d464 953d 8b21 2fbd eb1d 613d
00000210: 265d 823d fe17 96bd 5620 183d d2ff 70bd
00000220: 4c7d 313d 536f 2bba 3b98 823d 5719 aebd
00000230: 6ad6 3c3c 66c3 a73d 0299 463d affa 933d
00000240: 5d93 ed3b c487 1f3d 9797 7d3d de80 98bd
00000250: c339 acbc 0631 3d3d d31e c73d 0eda 46bd
00000260: d686 c4bb 5b5e c33c 7937 ffbb b2ef 54bc
00000270: 67cd 653d f1d7 a23b a7fe f63c 8324 743d
00000280: 4fe5 84bc 8a37 eb3c 63d6 353d c6b1 5ebd
00000290: 15d3 72bd 9d94 863d 8092 543d 1749 43bd
000002a0: 7914 8ebd fbf4 463d 2191 71bc 250a f3bc
000002b0: 05c9 edbc 2ac2 68bd afcc 753c fc8c 8a3d
000002c0: 120b 4abd 4323 87bd ceba 45bd bb5f ae3d
000002d0: 319c 473d e083 7fbd c05d 39bd 81ca 8e3d
000002e0: e9e9 ac3d 45bf a9bd ed71 7c3d 82a7 9d3c
000002f0: 7b00 9fbd 7f2d 9a3d 1ee5 67bd 10a3 113d
00000300: 6cdd 92bd 0068 91bd ca69 063d a315 fabc
00000310: 83fd 7cbd e26c cb3c 274b 61bd 5edc b7bd
00000320: 3718 33bd 44f3 463d 5283 273d b81f d2bb
00000330: b1e0 96bd 9182 8d3d ac83 5b3c e093 b7bd
00000340: 0b62 5abd b281 183c 1188 983d 09be ccbc
00000350: a45e a5bd 6dcb 533d e526 8dbd ce46 a9bd
00000360: 39cc cbbc 8742 72bb b0cb 2f3d c5a9 c1bb
00000370: f901 153d dca5 523d 3c64 ac3d cab2 15bd
00000380: 841a cb3d 9550 723c 4676 93bd 26df 71bd
00000390: 1dc8 50bd 11d4 3ebd ac6d 913b 46b4 a6bd
000003a0: 4af9 a23c a057 94bd 553b 983c 9ebb 1bbd
000003b0: 1137 273c a9a7 683d 10be b33d acf3 973d
000003c0: 6659 ea3b e467 e13c 374c 9c3d 23a2 943d
000003d0: ceff 333d 6bb3 71bd 6a6a d3bc cff0 4a3d
000003e0: 019a 103c ca00 9cbb 7b7f 11bc c7de 70bd
000003f0: d12b 8f3d 7ba5 6ebd 81b5 c63d fbca 0f3d
-0.034609187 0.09366761 -0.008628416 0.09452254 0.00024822753 -0.03978045 -0.0456495 0.04377082
0.041050166 -0.054846887 -0.015807273 0.0028288944 -0.021279788 -0.077332005 0.0020598853 0.082445405
0.0015202545 0.080166414 -0.061998498 -0.054806907 0.08740759 0.03879122 -0.09456402 -0.05906303
-0.041890502 -0.001336663 -0.009271759 -0.04342171 -0.08450641 0.050586347 -0.05347105 0.07069107
0.013050204 0.06736892 -0.093133695 0.009622533 0.022596499 -0.07472109 0.025356546 -0.047278717
-0.015908547 0.062453214 -0.014265884 0.05935142 0.060348954 0.097878926 0.0064876457 -0.09278108
0.059315033 0.059640493 -0.068770155 -0.03767904 0.0050019943 -0.023715068 -0.0769614 0.008953933
0.020053195 -0.07074793 0.022269834 -0.023067277 0.07027859 -0.028521346 0.047131296 0.021956857
0.072658226 -0.09378875 0.019460326 -0.08508842 -0.06784169 0.038730446 0.05641591 -0.050088145
-0.008235796 0.039756734 0.06527919 -0.04535865 -0.07621919 -0.040865306 0.028452476 0.08867999
-0.022024445 -0.03010795 0.09580869 -0.07900986 -0.014655378 -0.04658718 -0.07488438 0.049097553
-0.072929814 0.014595464 0.061770376 0.04360118 -0.07974139 -0.008294206 -0.006849738 0.08686477
-0.06750137 -0.009983646 0.013104398 0.02257496 -0.014406236 -0.07935936 -0.06551351 -0.0036829042
-0.032445136 0.07066728 -0.018977633 0.023447929 0.091938086 -0.0657674 0.0003908252 -0.0038956513
0.025486996 -0.022281451 -0.03945064 -0.05848048 -0.047200214 -0.029872255 -0.023774453 -0.051562082
0.017741643 0.051683657 -0.07715032 0.040466055 0.028535785 -0.02123884 0.064906314 -0.042575218
0.009030215 0.07294622 -0.0427566 0.054960173 0.06365423 -0.07328795 0.037140213 -0.05883772
0.043332383 -0.0006539721 0.06376692 -0.08500927 0.01152573 0.08191566 0.048485763 0.072255485
0.007250233 0.038947836 0.061912145 -0.074464545 -0.021023637 0.04618933 0.09722676 -0.048547797
-0.005997519 0.023848703 -0.0077885953 -0.012996601 0.05610409 0.00496959 0.030150725 0.059605133
-0.016222624 0.028713007 0.04439391 -0.054368757 -0.059283335 0.065713145 0.051897526 -0.047677126
-0.069374986 0.048573475 -0.014744074 -0.029667923 -0.029026518 -0.056825794 0.015002414 0.06765172
-0.049326964 -0.065985225 -0.048273854 0.08514353 0.04873294 -0.062381625 -0.045255423 0.06972218
0.08443052 -0.08288435 0.061632086 0.019244913 -0.077637635 0.07528209 -0.056614988 0.0355559
-0.07171139 -0.070999146 0.032815732 -0.030527895 -0.061765205 0.024832193 -0.05500331 -0.089775786
-0.043724265 0.04857184 0.04089672 -0.0064124726 -0.07367075 0.06909669 0.013398092 -0.08963752
-0.053316157 0.0093082655 0.074478276 -0.02499296 -0.08074692 0.051707674 -0.06892184 -0.08265458
-0.024877654 -0.0036965923 0.04291886 -0.0059101307 0.036378834 0.051427707 0.08417556 -0.03654746
0.09917167 0.01478972 -0.07200293 -0.0590507 -0.050972093 -0.04658896 0.0044381227 -0.08139853
0.01989426 -0.07243276 0.01858298 -0.038020723 0.010206 0.05680052 0.08776486 0.074195236
0.0071517704 0.02751536 0.07631724 0.072574876 0.043945126 -0.059008997 -0.025807578 0.04954606
0.00882578 -0.0047608363 -0.008880491 -0.058806207 0.06990779 -0.058263283 0.09702588 0.035105687

rnn.bias_hh_l0 f4 [384]
00000000: 1754 dfbc 0217 97bd 7034 283d 212b 383d
00000010: a308 95bd d9d6 3f3d d7df 8bbd 6277 8cbc
00000020: 7a2f 91bc bb2d 3d3d 5549 713d a95d 85bd
00000030: 56e1 c9bd 55a0 c1bd 1619 d9bb fe68 1fbd
00000040: bb53 1cbd f750 63bc cb7a adbd 71f4 aebd
00000050: 5f69 1a3d a1a8 dd3a 583b 5a3d d60c 63bd
00000060: f160 7d3d 8130 1f3d a221 cebb 8787 883d
00000070: 9e5c fa3c 411d 4f3d 8024 aebd a370 f63c
00000080: 9f28 083d 26c7 20bd 3468 323d a81d b43c
00000090: 55f4 a0bc 6691 5a3d 20ee 023d 15f7 a9bd
000000a0: 9f55 513d 78d0 8cbd 2c54 9ebd 75c2 bf3c
000000b0: b215 debb 25a0 20bd 5b17 8fbd 78af f73c
000000c0: b6ad 653c 82ea b43b 3fb2 96ba 4836 c0bd
000000d0: 65ce c2bd fbb0 853b 9d6b 923d f655 9fbd
000000e0: 530b 5dbd 7b81 073c cf71 adbc a244 0abd
000000f0: 229d 12bd e4bb b1bd a668 943d 5b5c d93c
00000100: 4497 69bd 1e70 82bd 2d0a bdbd 543e 703d
00000110: 11b0 7a3d b128 703c ca2d 74bc f573 593c
00000120: 403c 563d 976e a73d 1aed 18bc 7308 6a3d
00000130: 9e58 e13a ddd2 94bd a555 a0bc 3607 8cbd
00000140: 8187 6bbc 70b4 bdbd 5914 863c c90d 87bc
00000150: abb6 82bd 2886 13bd 3d18 a7bd 7d55 a13b
00000160: 51de f3ba d7a8 2b3d 5219 95bd 500d 933d
00000170: 5155 2cbd 38d9 12bd 76de c83d 6abf 463d
00000180: b3f9 6f3d ab04 5d3d 9016 22bd 4da6 a5bd
00000190: f39e 0dbc 2c64 89bd 17d0 913d 65e3 98bd
000001a0: 8d2f 72bd ec7f adbd fe16 44bc bdbe 96bc
000001b0: e622 c13c 0590 41bd 74db a4bd 19c7 89bd
000001c0: 01e5 5339 99b5 3fbb 8de3 3abd 082f 893d
000001d0: d0a3 babd a865 b53c 4266 77bd fb39 4cbd
000001e0: b8ab bc3d 4616 7fbd 926b 153c 5485 213d
000001f0: 2602 8f3d db4c 87bc a288 69bd 623a 813d
00000200: fd7b fcbc 6164 1e3d 4c90 13bd fa6e 933d
00000210: b549 dcbc e5f0 12bc 45f1 08bd 8ea9 85bd
00000220: 8574 133d dd85 83bd b97b 48bc 0426 913d
00000230: d7ad ad3d be14 953d 72e9 fb3c 394d 803d
00000240: 0856 16bd 25f2 aa3c 1c92 ab3d 0301 1d3d
00000250: 9c39 a83d a152 d1bc 6e0d 223b 0618 15bd
00000260: 9298 47bd fdf6 06bd 5eb6 a2bd 30fd 82bd
00000270: 821e 843d 3ee2 2a3d 6453 823c 35ce a63d
00000280: ec66 513d aa96 c2bd 0f60 b23d 08ae 53bd
00000290: bac9 d93c 94a6 e13c 9186 25bc 640d 973d
000002a0: 62c0 5f3d c702 673d feeb 503d 015e 88bd
000002b0: 8709 a33d a43c 833d 85c4 753d 419b 183d
000002c0: f4a0 a0bd f193 173d 0f17 823c 06f3 92bd
000002d0: 2588 7abd 1111 afbd 9865 913d 8775 79bd
000002e0: 9bb4 753d 38cc e6bc df2c 9fbd 2bd3 02bd
000002f0: 29e8 49bd 0f26 81bd 842a 1a3d 4698 f03c
00000300: 3dcf 343b aa51 18bd 54d5 a4bc ae5f ad3d
00000310: 34f7 903d 39d2 45bc fbfa a63b 4217 64bd
00000320: bd0a 633d 5d3e 48bd 3652 6b3d 25a4 bc3d
00000330: e153 073d 229a 8fbd 44bf debb 0e2f 4cbc
00000340: 7b2d 8fbc cf38 84bc 66af 233d 972c bc3d
00000350: ed0d b43d 4ac8 8cbd 4789 aebd 8a19 783a
00000360: 3955 873d 3cda 98bd 2c29 253d e96f 09bb
00000370: 418b f73c 7083 583d db0a 1e3d 5e49 c5bc
00000380: 0d83 82bd 5f15 013c fc57 6abd ec15 bdbd
00000390: 7f06 58bb abd4 abbd dd6b adbd 5491 8c3d
000003a0: e5da b13b 5a8e dcbc 712f a4bc fd45 a43d
000003b0: b052 10bd 6ddf 4a3d 1779 313d f9e7 1dbd
000003c0: f0e4 4b3d fbd9 7fbd 5244 083d e9ff 8cbd
000003d0: 3d4c a5bd 117e 813c 3ac7 783d c91f 783d
000003e0: 7b62 f93b 8c92 8dbd 45e8 903d 15d5 4f3d
000003f0: fca7 233d 919d a1bc 47d0 ad3d 2c25 b7bc
-0.027261777 -0.07377435 0.041065633 0.044963006 -0.07277038 0.046835754 -0.068298034 -0.01714677
-0.017722834 0.04618619 0.058907825 -0.06512005 -0.098574325 -0.09454409 -0.006625305 -0.038918488
-0.03816579 -0.013874284 -0.084706865 -0.08542717 0.037698146 0.0016911217 0.05327925 -0.055432163
0.06186003 0.038864616 -0.0062906304 0.06666475 0.030561741 0.050565008 -0.085030556 0.030083006
0.033241864 -0.039252423 0.043556407 0.021986797 -0.019647757 0.05336132 0.031965375 -0.0829908
0.051107045 -0.068757 -0.07730898 0.023408154 -0.0067774886 -0.039215226 -0.069868766 0.030235037
0.014018467 0.0055211196 -0.0011497213 -0.09385353 -0.09512023 0.0040799356 0.07149432 -0.077800676
-0.053965878 0.008270617 -0.021172432 -0.03375686 -0.035794385 -0.086784154 0.072465226 0.026533296
-0.057029024 -0.06369041 -0.092304565 0.05865319 0.061203066 0.014658139 -0.014903495 0.013272275
0.052303553 0.0817539 -0.009333873 0.057136964 0.0017192548 -0.072667815 -0.019572088 -0.06837313
-0.014375568 -0.09262931 0.016367124 -0.016486065 -0.063824974 -0.036016613 -0.0815892 0.004923521
-0.0018605684 0.041909065 -0.0728022 0.071802735 -0.04207355 -0.035851687 0.09808056 0.04852239
0.05858774 0.05395953 -0.0395723 -0.0808836 -0.0086438535 -0.067085594 0.07119768 -0.07465247
-0.05912738 -0.08471665 -0.011968372 -0.018401498 0.023576211 -0.04725649 -0.0804967 -0.06727428
0.00020207839 -0.0029252528 -0.045627166 0.066984236 -0.09113276 0.0221432 -0.060400255 -0.049859982
0.0921244 -0.0622771 0.009119885 0.039433792 0.06982832 -0.01651614 -0.05701507 0.06309964
-0.030820841 0.038669948 -0.036026284 0.071989015 -0.026890615 -0.008968567 -0.033433218 -0.065264806
0.035999794 -0.06422017 -0.012236529 0.07087329 0.08480423 0.07279347 0.030750964 0.06264729
-0.03670314 0.020867417 0.083774775 0.038331043 0.08214113 -0.025552096 0.0024727243 -0.036399864
-0.048729487 -0.03295039 -0.0794494 -0.06395948 0.064511314 0.041719668 0.015908904 0.081447996
0.051123545 -0.09501393 0.08709728 -0.05167964 0.026585449 0.027545251 -0.010102884 0.07375601
0.05462683 0.056399133 0.05100631 -0.06658555 0.079608016 0.06408051 0.06000187 0.037257437
-0.07843199 0.037006322 0.015880136 -0.07175259 -0.061164994 -0.08548177 0.070994556 -0.0609031
0.059986692 -0.028173551 -0.0777223 -0.031939667 -0.04929367 -0.06306087 0.037638202 0.029369485
0.0027589344 -0.037187256 -0.020121254 0.08465515 0.070784 -0.012074047 0.005095837 -0.055686243
0.055430163 -0.0488876 0.05745145 0.092109956 0.033038978 -0.070118204 -0.006797703 -0.012462391
-0.017477741 -0.01614037 0.039962195 0.09188192 0.08791719 -0.068741396 -0.08522277 0.0009464255
0.06608052 -0.074635 0.040322468 -0.0020971245 0.030217769 0.052859724 0.03858457 -0.024082836
-0.06372652 0.00787863 -0.057212815 -0.09232697 -0.0032962856 -0.083901726 -0.08467839 0.06863657
0.0054277056 -0.026923347 -0.020042153 0.08021162 -0.035235107 0.04952948 0.04332837 -0.038551304
0.04977888 -0.06246374 0.03326828 -0.068847485 -0.08071182 0.015807183 0.060736872 0.060577188
0.0076106167 -0.06912717 0.07075552 0.05074032 0.039955124 -0.019728454 0.084869914 -0.022356592

rnn.weight_ih_l1 f4 [384, 128]
00000000: 64b8 b2bc f048 06bd 5ec6 33bd 9dc6 94bc
00000010: 4627 a33d 14af b4bc b402 a9bd 9a03 84bd
00000020: 69bf b2bd f94b b83c e141 d93a 2a76 6b3c
00000030: a59c 003c b49a 243d 1c72 de3c d308 b83c
00000040: 27b7 6d3d 279b 763d 9256 9c3d a015 963d
00000050: db5c 8dbd d9f9 0c3c 9599 6d3c aeac 383d
00000060: ae8d 63bd ff24 39bd e6b0 99bd 53bf 6dbc
00000070: 5820 093c 3fdc afbd 44d1 41bd 1dce 32bd
00000080: 29ce 24bc bacd 10bd 5e44 3ebd c524 a7bd
00000090: 6732 9cbc ba63 be3d b062 16bd c167 9c3d
000000a0: cada 6dbd b8c6 983d ea41 91bd 7d19 80bd
000000b0: f551 4fbd c7ba 2f3d 2504 253d 33bc 0abc
000000c0: b394 08bd df1b 3fbd 99f2 1fbd a4bd b9bc
000000d0: 5711 78bb 9b07 9ebd 675d 0f3d 2eef 673c
000000e0: f142 19bd b8b5 9a3d 636f b3bd 16b9 523a
000000f0: dd5f 843b 485c a13d aad9 743c 7fe7 293d
00000100: 3a0f 753d e43f 993d c7ad d43c 15b8 693c
00000110: a64c 843d f38b 80bd 9008 913d 28fb 733c
00000120: 39a4 bf3c 9612 8cbd c904 1b3d 51a3 9d3d
00000130: 8f1f afbd 0ea3 773c 907b ae3d 101f 2dbd
00000140: 79f3 8cbd 6749 7dbd 361d 13bd 7f8f 1e3d
00000150: 8c07 b83c 79ce 78bd cd4b b13d 48e5 033b
00000160: d092 a5bc ddef acbc 44b2 3bbd 866d 74bc
00000170: 1c65 253d c664 a43d 0d56 78bd 2238 92bc
00000180: e021 9fbd 8835 25bd 7c94 943d 715e 243d
00000190: 5286 043d 7171 a03d 7bd1 8a3a b783 833d
000001a0: 49c6 5dbd 8b04 38bc 265f 803c 8ad2 15bd
000001b0: af0d 83bd b06f 9a3d ac67 1b3d d264 093d
000001c0: d932 3b3c cbec bebd 2b37 4dbd 24e6 703c
000001d0: d328 a83d 744d 9d3d e43c 93bd f14f 633c
000001e0: 68bf 70bc b4f9 8fbd e73e 573c 1123 9b3d
000001f0: bfae 913d a07e a7bd d692 a0bd ddd8 e13c
00000200: 3b76 50bd 2c03 9a3d c5a3 643d 0674 b43c
00000210: 0d67 553d 38b1 8d3d 05a5 6bbd b89a 0f3b
00000220: 5f20 383d fce0 003a 173a 6abd 9d1d 4abd
00000230: 580b 8abd c566 54bd 15ef c03d 13f5 e4bc
00000240: 875d 30bd 4401 803d 9541 90bc 2ff0 8d3d
00000250: 7d65 bf3d 1c9e 8dbc 1b7a f7bc bea2 423c
00000260: 8479 153d 748c a93d ebed 9cbd 5c03 72bd
00000270: 76ee ff3c 4bc9 473b d9ae 29bd ee57 fbbc
00000280: d621 10bd 5166 773d 0081 00bd bd22 453d
00000290: 7fc4 0e3d 85ab 09bd 9af5 b93b 3e36 04bb
000002a0: 354e 82bd d364 a5bd 866f 533b 9df7 bdbb
000002b0: 9944 5d3d 7a0c 693d 429a 413c 417c 273b
000002c0: e68a 423c 8c1c 9a3d 8f7d 90bd dd7c 913d
000002d0: baaa 90bc ee8f 9e3d 66f5 c13d 3a77 84bd
000002e0: bda8 83bd fb1c 1dbd 9e15 9f3d 11e7 7ebd
000002f0: de93 9abd bb74 bf3d c7f5 3abc 2707 47ba
00000300: 665d 0abd e085 6c3d 56cc 55bd 1c6c 13bc
00000310: 3927 42bd 5d08 0a3d c576 f8bc 08ef 263d
00000320: 53f8 47bc 6728 6f3d 590d 52bc c2ec 7ebd
00000330: 0ff6 b5bc cd1a afbd d3ac 5bbd 9396 9a3d
00000340: e6e0 123c 5a05 2c3d 1125 1b3c 0f2a 6c3c
00000350: 6011 743d 7252 973d 0970 79bd c7aa f03c
00000360: 6538 563d 5c14 e4bc 20ed 583d 4ce4 263d
00000370: 029f 923c 5cc8 023d 4760 ba3d 135f a6bd
00000380: 9b96 f43b 57dc 24bd 8bfd cabc 1c7a 703a
00000390: 1b3b 53bb 06bd 1f3d 9467 92bd b8be b33d
000003a0: fe69 5ebd 570c a03d 2735 773d d867 9dbd
000003b0: f9ba 973d f64e f2bb ea2a 693c 3249 973d
000003c0: 5e60 553d 49e5 9a3d c4ca 9fbd 8cc9 383d
000003d0: bc35 38bd 735d 643c 1680 3b3d e6d6 75bd
000003e0: 43eb 3c3c 24ac 403d a1b0 2b3c b5ec e6bc
000003f0: daf1 803d c64c c53a 3c35 95bd c9f1 923d
-0.02181644 -0.032784402 -0.04389035 -0.018161112 0.07966475 -0.02205614 -0.08252469 -0.064459994
-0.08727915 0.022497164 0.001657542 0.014371434 0.007849847 0.0401866 0.027154021 0.022465145
0.058035996 0.06020656 0.076336995 0.073283434 -0.069024764 0.00860449 0.014501949 0.045086555
-0.05555504 -0.045201298 -0.07504444 -0.014510947 0.008369528 -0.085869305 -0.047318712 -0.043653596
-0.010058918 -0.035352446 -0.04645192 -0.0816131 -0.019067002 0.09296365 -0.03671521 0.07636977
-0.05806998 0.074597776 -0.0709265 -0.062548615 -0.05061527 0.042902734 0.040287156 -0.008467722
-0.033344936 -0.04665744 -0.03904972 -0.022673436 -0.0037852132 -0.077162944 0.035001185 0.014156146
-0.037417356 0.07554191 -0.0876148 0.0008038444 0.004039748 0.078789294 0.014944473 0.041480538
0.059828974 0.07482889 0.02596177 0.01426508 0.06459932 -0.06276693 0.07081711 0.014891423
0.023393737 -0.068394825 0.03784636 0.07697166 -0.08550941 0.015114559 0.085196614 -0.04226595
-0.06882376 -0.06183758 -0.03591653 0.038711067 0.022464536 -0.060743783 0.08657036 0.0020125676
-0.020211607 -0.02111047 -0.045824304 -0.014918691 0.04037963 0.080270335 -0.06062894 -0.017849032
-0.07770133 -0.040334255 0.07254884 0.04012913 0.03235466 0.07834137 0.0010590994 0.06421607
-0.054144178 -0.011231552 0.01567037 -0.03657774 -0.06399094 0.07540834 0.037940666 0.033543415
0.011425697 -0.093225084 -0.05010144 0.014703307 0.082109116 0.07680789 -0.07189348 0.01387404
-0.014694072 -0.07030049 0.013137556 0.07575048 0.07113408 -0.08178449 -0.07840507 0.027569229
-0.050894003 0.07520136 0.055820245 0.02202798 0.05210023 0.069185674 -0.05753042 0.0021912288
0.044952746 0.0004916338 -0.057184305 -0.049344648 -0.06740445 -0.05185582 0.09420601 -0.027948892
-0.043057945 0.062502414 -0.017609397 0.06930577 0.09345529 -0.017287306 -0.030209592 0.011879621
0.03649284 0.082787424 -0.07662567 -0.059085235 0.031241637 0.003048497 -0.041426513 -0.030681577
-0.03518852 0.06040031 -0.031373024 0.048128832 0.034855362 -0.03361084 0.00567503 -0.0020173932
-0.06362573 -0.08075871 0.0032262518 -0.00579734 0.054020498 0.056896664 0.011816563 0.0025556239
0.011873936 0.07524976 -0.070551984 0.07103894 -0.017659534 0.07742296 0.09470634 -0.06468053
-0.06428669 -0.038357716 0.07767795 -0.06223208 -0.07547735 0.093484364 -0.011411137 -0.00075923133
-0.033780478 0.05774486 -0.052196823 -0.008997943 -0.047400687 0.033699382 -0.030330071 0.0407553
-0.012205201 0.05838814 -0.012820565 -0.06223751 -0.022212056 -0.08550034 -0.053631615 0.07548251
0.008964753 0.04199729 0.009469287 0.014414324 0.059586883 0.07388772 -0.06089786 0.029378308
0.052299876 -0.02784174 0.052960515 0.040745065 0.017898086 0.03192936 0.09100395 -0.08123603
0.0074642426 -0.040249195 -0.024779102 0.0009173469 -0.0032231275 0.038998626 -0.07148662 0.08776611
-0.0543003 0.07814854 0.060353424 -0.07685822 0.07408709 -0.007394667 0.014231423 0.07387008
0.052093856 0.07563264 -0.07802346 0.045114085 -0.04497312 0.013938296 0.04577645 -0.060019396
0.0115307 0.047039166 0.010479123 -0.028189043 0.062961295 0.0015052787 -0.07285544 0.07175023

rnn.weight_hh_l1 f4 [384, 128]
00000000: 07da 4a3d f126 6f3d a2ad 673a 3125 a43d
00000010: ebc6 67bd 4cbd 4e3c d300 9b3c 04a2 763c
00000020: 6be1 7ebc f10e 36bd c285 923c 6fd0 4ebc
00000030: ffff 01bc 7047 6cbd 5713 7a3d 6c08 b43d
00000040: 0992 a4bd 707a 813d 6f49 ec3c 41ce b83a
00000050: 23d2 b0bb c2d4 a1bd 9a53 853c 8668 253d
00000060: 5f49 acbd 280f aebd 67a7 8abd 6bbc 61bd
00000070: 2958 853d 4a3b a53c 2fe9 b7bc df12 be3b
00000080: 877d 01bd dd5b 34bd 1b8d 35bd b650 8d3d
00000090: 4c2b b1bd 8123 19bd d1ca f13b 72af 1abc
000000a0: a9c0 97bc 8ca0 4e3c e3ca 3f3d 8527 a2bd
000000b0: 3c85 bdbc 155a 53bd 658f 363d 6449 66bd
000000c0: 83ad 203d 8e12 5ebd b135 373d 73fd acbd
000000d0: 574a 97bd ab68 353d 2518 9b3d e584 813d
000000e0: 837e 80bd 53ed 103d 77a0 3c3d a58d 80bd
000000f0: e1e4 70bc 87a1 1cbc 0544 5ebd db3c f13c
00000100: de27 663c ba26 7f3d 6fbc c9bc a973 8e3b
00000110: 3437 74bd d1fb 243b daad 5b3c 87cf 67bd
00000120: c238 3d3d 655c 6f3d faec d73c 0829 b1bd
00000130: 797c 963d 92a3 a13b 3579 9b3d 1d8a 65bd
00000140: 72a9 d4bb e080 ac3d 8d80 d1bc d81d a5bd
00000150: 7672 063c 154d e33c e0d1 a2bc 271e 923d
00000160: bb57 8cba c852 07bc 5f40 a43c 2c34 a23d
00000170: de39 b0b8 5bb9 603d 6b6f aabc b21e 5bbd
00000180: 6a03 79bd ac7e 0d3d d876 4a3d 5ebd 1d3c
00000190: e7d0 acbd 2fc6 9d3d a48b 963d f06a 973d
000001a0: cc4e 883b 1125 11bd 43e1 8bbc e274 a23c
000001b0: fdbf 813d a09b 54bd d7e2 693d d369 313d
000001c0: d086 a4bd b949 2cbd 7f15 3d3d 2a30 0b3d
000001d0: e942 8fbd 0a79 843d b334 0fbd b1e3 b13c
000001e0: 61f9 10bb 46e9 2d3d d6ec 84bc 39eb 943d
000001f0: a8c8 ac3d 089b 0e3d 8ce7 0b3d fd54 ac3d
00000200: 9364 453d 083a 8bbd 1f62 3cbd 9671 c93c
00000210: 26e2 193d bcf4 6bbc 1fc6 4f3d 659b ca3c
00000220: eff5 c93d 3264 a73d 3581 9abc d2f3 2cbd
00000230: d8b2 773c 4dfc b23c bb00 a63d 01d0 c9bc
00000240: 401c d5bc 8a47 fd3a 4a44 493d c0f9 ac3d
00000250: 907e d43b 089d 95bd f85b 593c 3594 ccbd
00000260: 9a40 b63d c65c 73bd cde5 8cbd 25f4 4ebd
00000270: ff2a 673d f72e 5dbd 1be3 d73c 0bc6 95bd
00000280: 9ad6 b4bd 617e b23d e610 15bd 5033 83bb
00000290: e31d a7bd e951 9c3c 8a5f 3f3d 307b 513d
000002a0: 8321 1b3d 46ab 95bd 074e 3a3c 51c0 24bd
000002b0: 7578 e53c 8b77 85bc f003 053d 7318 4cbd
000002c0: 389b a33c 2a73 94bd 3353 a7bd 57ac de3c
000002d0: 8550 763d 8253 81bd 1517 ff3c 95f1 b13d
000002e0: 3df6 473d c46b f8bc 67f3 93bd 9a95 8c3d
000002f0: 68a5 28bd 973f 003d f814 17bd c7e3 a13d
00000300: a07c 273d 07e6 4a3d 1995 83bd 587b 78bd
00000310: ce04 d03c fa86 93bc 654f 793d ac87 cabc
00000320: 79b9 b2bc 7649 d4bb ed52 9e3b cef2 41bd
00000330: 3c46 b23c 55f5 a3bc b7fa 383d e737 a03c
00000340: 1531 7b3d 8ec8 773d bf91 fd3c 48cf 023b
00000350: 9892 0e3d 73c3 073d 0db8 5ebd f47b 8dbd
00000360: bc81 8e3d 6bf2 b7bd 44bb aebd 044a e7ba
00000370: 791a 19bc bd9c 783d 6008 bcbb 8136 9e3d
00000380: 9edd e7bc 76a6 3c3d 0e5c 673d f8fb daba
00000390: 85c3 b9bc 19ae 9f3c ce66 863d 7ed2 a73d
000003a0: cb7e eebc 8233 da3c 6a66 453b 5415 243b
000003b0: 4eda de3c b9ba 38bd 3320 1fbd e664 013d
000003c0: 9f7f 383d c4e1 14bd d0bc 833d f010 53bd
000003d0: d6a0 5dbc a3ea 5a3d 490e 513d 205b bcbd
000003e0: a533 8bbd e4fc 05bd 5417 38bd dd7a 0a3d
000003f0: 37f5 55bd d00e 0bbd 1c63 8fbd 5594 ae3d
0.049524333 0.058386747 0.0008837824 0.08014906 -0.056586187 0.012618374 0.018921291 0.015053276
-0.0155566735 -0.044447843 0.017886046 -0.012622937 -0.007934569 -0.057685316 0.0610536 0.08790669
-0.080356665 0.06322181 0.02884361 0.0014099554 -0.005396144 -0.079019085 0.016275216 0.040382884
-0.08412432 -0.084989846 -0.06770211 -0.05511133 0.06510956 0.020169873 -0.022450058 0.0058005895
-0.031613853 -0.04403292 -0.04432402 0.0690016 -0.08650836 -0.037387375 0.007378914 -0.0094412435
-0.018524485 0.01261152 0.046824347 -0.07917694 -0.02313482 -0.05159958 0.044570345 -0.056222335
0.039227974 -0.054216914 0.04472894 -0.08446779 -0.07387226 0.044289272 0.075729646 0.06324176
-0.0627413 0.03538258 0.04605147 -0.062770166 -0.0147030065 -0.0095599955 -0.054264087 0.029447963
0.014047591 0.062292792 -0.024625985 0.004347284 -0.05962296 0.0025174508 0.013408149 -0.056594398
0.046196707 0.058437724 0.026358116 -0.08650404 0.0734796 0.004932829 0.07591478 -0.05603992
-0.006489926 0.084230185 -0.025573993 -0.08062333 0.008206001 0.027746717 -0.019875467 0.07134657
-0.0010707298 -0.008259483 0.020050226 0.07920107 -8.4031126e-05 0.05486427 -0.020805081 -0.05349607
-0.06079427 0.03454463 0.049429744 0.009627668 -0.084382825 0.07703816 0.07350853 0.073934436
0.004159784 -0.03543574 -0.017075187 0.019831125 0.06335447 -0.051906228 0.057101097 0.043313812
-0.08033526 -0.042062495 0.04616308 0.03398148 -0.06995184 0.06468399 -0.034962367 0.021715017
-0.0022121298 0.042458795 -0.016226213 0.07271428 0.0843671 0.034815818 0.034156367 0.08414648
0.04819162 -0.06798178 -0.045992013 0.024590295 0.037569188 -0.014401611 0.050726052 0.024732301
0.09861361 0.081734076 -0.018860439 -0.042224713 0.015118323 0.021848822 0.08105608 -0.024635317
-0.026014447 0.0019323688 0.04913739 0.084460735 0.006484814 -0.07305342 0.013266556 -0.09989206
0.088990405 -0.059414648 -0.068797685 -0.050525803 0.05643749 -0.053999867 0.02635341 -0.07313164
-0.088299945 0.08715511 -0.03639307 -0.0040039197 -0.08159997 0.019082027 0.046721973 0.05114287
0.037873756 -0.073080584 0.011371142 -0.04022247 0.02801154 -0.016292354 0.03247446 -0.049828004
0.019971475 -0.07248528 -0.08170166 0.027181787 0.060135383 -0.06314756 0.031138936 0.08688656
0.048818815 -0.030324824 -0.0722416 0.06864472 -0.04117337 0.031310644 -0.03688523 0.07904773
0.040890336 0.049535777 -0.064249225 -0.060664505 0.025392916 -0.018008698 0.060866732 -0.024722897
-0.021816956 -0.006478484 0.004831663 -0.047350697 0.021762006 -0.020014444 0.045160975 0.019557906
0.061326105 0.060494 0.030953286 0.0019959975 0.03480777 0.03314538 -0.054374743 -0.06908408
0.069583386 -0.089817844 -0.08531812 -0.001764596 -0.0093446905 0.060696352 -0.005738303 0.077252395
-0.028303917 0.046057187 0.056484275 -0.0016707173 -0.022676239 0.019492196 0.06562577 0.08194445
-0.029113194 0.026635889 0.0030120858 0.0025037127 0.027203705 -0.045099948 -0.038849067 0.031590365
0.045043584 -0.03634812 0.064324975 -0.051529825 -0.013527116 0.053446423 0.051039014 -0.09197068
-0.0679696 -0.03271188 -0.044944122 0.033808578 -0.05223581 -0.033949673 -0.070013255 0.08524386

rnn.bias_ih_l1 f4 [384]
00000000: add1 9a3d 0529 8cbd f6f7 a03d 4a48 80bd
00000010: 2158 5cbd 2b4b 88bd 55d5 3c3d 2a76 933d
00000020: 442b c4bd c5fa 6c3d b062 0c3d 98c9 54bd
00000030: 8a49 21bd 1f90 4ebd aa23 31bd 712b 1e3d
00000040: 21df 473d ac2f 8abd cf4d 9a3d e74f 00bd
00000050: c90d 48bc 5897 27bc dc10 633d 8af9 9bbd
00000060: b645 ee3c 835b 923d 14d0 9c3d 5057 65bd
00000070: e0dd 8dbd 5428 463c 0e2a 863d ac15 ab3d
00000080: ad04 643d 63ea 89bc 8e82 553d e3eb a83d
00000090: 3195 a7bd f1e0 14bd 5bc4 ac3d 2a79 a2bd
000000a0: 6b95 933d 522f a43c 60ca 943d 4d86 893b
000000b0: 8578 2fbd e6b6 c53c 2521 bcbc 7709 663d
000000c0: 617b 3f3c 109b eb3a af54 a43d 4745 b3bd
000000d0: b551 8fbd 161d 493d 951f 243c 2be8 603c
000000e0: ff14 7a3d 6e04 57bd ede4 87bd 104e a63d
000000f0: 4564 0e3d a1d4 53bd bc95 e53c 5fa0 743d
00000100: 4fd9 9ebd 1707 80ba 95d3 9e3d dd51 be3c
00000110: 6b6a 4dbb 3301 3dbd 4bd6 f1bc 04a9 2a3d
00000120: d0a5 083d ce55 8f3d 5f76 bcbd 57a1 c7bd
00000130: 3dc9 6dbd 56b0 32bd 2c55 1cbd ebed 1f3d
00000140: 38db ae3d d070 8ebd c5d1 0dbd 957d 67bd
00000150: 0d98 28ba fe5f 843d e18c 753d c5fd 923d
00000160: 3293 5e3d c28c 273d bc4d 6dbc 1892 c2bd
00000170: 715a 383d 312d 643d 829f 9abd 88d5 9abc
00000180: 5ba0 f53c 776d d23c 1f45 b33d 84fa 443b
00000190: a628 813d 762d ab39 a743 7e3d c5b7 b93c
000001a0: ab5e 253d b20d 9b3d 232c 5d3d 1e36 37bd
000001b0: 91b5 47bc 11d3 293d b12d d6bd c3e9 0d3d
000001c0: 4181 9ebd 3158 a2bc 329e 76bd 2346 293c
000001d0: d9b3 e93c 1b85 2ebd 8eb1 a0bd 7349 97bd
000001e0: 1e04 8f3d 58fa 633d d2d4 c8bc 53dd a7bc
000001f0: 6d41 44bd 3220 06bd 2023 41bd eaab 723d
00000200: 0296 30bc e71a 84bd 4abe b1bd 6c60 333b
00000210: fb41 983d 457b a13d a796 b93d 8aef 84bd
00000220: 6d1e 923c bb24 f1bc 3bb4 3a3d d695 e8bc
00000230: 0707 9abd a2dc d2bc feb5 0e3c e9ed acbd
00000240: 5c8f bebc a2e0 3abd 4f6a 883c 6f90 b33d
00000250: af4a 413c 86ce 923d 70d4 f43c cddf 4dbd
00000260: d647 403d 0966 8fbd 31e9 b9bd a1b9 a13d
00000270: d7a4 99bd e2f0 72bd a826 863d 3a23 56bc
00000280: 624a a13c 6cf1 573c d352 4ebd c010 963d
00000290: 0f7e de3b a15c 493d 2569 d53c 8432 4e3d
000002a0: 6125 96bc 4267 1fbd 184f 89bd c4b1 ecbb
000002b0: 468c 3abc a93f fb3a 5dc4 3bbd ba12 843d
000002c0: 00c8 74bd a6aa f33c 04a1 b83c 7fce 88bd
000002d0: 726d 1dbd 0c5f 193d 9a64 a3bd f943 a03d
000002e0: 7416 5c3d cde7 f33c 86da 8d3d f6e1 74bb
000002f0: 2313 463d 4e2e 6bbd d7f9 92bd c6bf 463d
00000300: b171 0bbd f0df 88bd 5bb0 993d 209d 9cbd
00000310: f023 3c3c 8462 abbd d768 783d 3499 b6bc
00000320: 7422 94bc 9d70 653d 3400 17bd ff93 f43b
00000330: 7815 1ebd c23a 96bd f7e2 a4bd f7c0 b2bd
00000340: a5c2 893d 9477 cfbc 6cd9 9f3a 3d35 133c
00000350: 5330 a4bd c6b1 01bd 29ca 95bc 0520 a4bd
00000360: d065 913d 69f6 2cbc 20af b1bd 39a6 1fbd
00000370: b76d 8d3c fe99 96bc a15d c43c a2bb 9c3d
00000380: 76c9 3b3d b589 b23d a2ab 84bd 957d 6dbc
00000390: 9e2b 7d3d e77e ba3d dd92 013c aa33 103d
000003a0: 99b4 ae3c 428a 183d 7819 613d 55cb c33c
000003b0: d7dd 94bd aeb7 51bd 8f6d 503d 6e85 303d
000003c0: 0ada ad3c 1751 8d3d 9c53 603b 249b 9abd
000003d0: 0eca 513d 47c2 78bd 63d6 35bd cf0a 54bb
000003e0: e5fc df3c f96d 0e3d c47a 20bd 6651 bd3d
000003f0: 88a9 cc3c a80c 9a3d 7c1d 193d 2df1 88bd
0.07559524 -0.06843761 0.07859795 -0.06263788 -0.053794984 -0.06654962 0.046101887 0.072002724
-0.09578565 0.05785634 0.034273803 -0.051950067 -0.039376773 -0.050430413 -0.043246903 0.038615648
0.048796777 -0.06747374 0.07534372 -0.0313262 -0.012210318 -0.010228954 0.055436 -0.07615955
0.029085975 0.07146361 0.07656875 -0.05599147 -0.06927085 0.012094576 0.0655099 0.08353743
0.05566852 -0.016835397 0.05212646 0.08248117 -0.08182753 -0.036347333 0.08435889 -0.079332665
0.072062336 0.020042095 0.072651625 0.004196918 -0.042839546 0.024135064 -0.022965023 0.05616137
0.011687131 0.0017975289 0.080239646 -0.08753448 -0.06998006 0.049100004 0.010017295 0.013727228
0.06105518 -0.05249446 -0.06635461 0.08120358 0.034763593 -0.05171645 0.0280255 0.059723254
-0.07756292 -0.0009767738 0.077552 0.023232395 -0.0031343948 -0.04614372 -0.029521128 0.041665092
0.033361256 0.06998788 -0.09202265 -0.0974757 -0.058053244 -0.0436252 -0.038167164 0.039045256
0.085379064 -0.06955111 -0.03462388 -0.05651625 -0.0006431349 0.064636216 0.059948806 0.07177309
0.054339595 0.04090572 -0.014483865 -0.095005214 0.045008127 0.05570716 -0.07549955 -0.018900648
0.02998369 0.025686963 0.08753418 0.0030056546 0.06306581 0.00032649533 0.062076237 0.022670636
0.040373486 0.075709715 0.05399717 -0.044729345 -0.012189285 0.041461054 -0.10457934 0.03464676
-0.07739497 -0.019817444 -0.06020946 0.010331663 0.02852814 -0.042607408 -0.07846366 -0.07387056
0.06983207 0.05565867 -0.024515543 -0.020491278 -0.047913957 -0.032745548 -0.04715264 0.05924598
-0.010777952 -0.06450444 -0.08678873 0.0027370704 0.0743446 0.0788484 0.09061938 -0.06491001
0.017836774 -0.02943646 0.045582037 -0.02839176 -0.075208716 -0.025739972 0.0087103825 -0.08443815
-0.023261718 -0.045624383 0.016652254 0.08767783 0.011797591 0.071682975 0.029886454 -0.05026226
0.046943508 -0.070018835 -0.09077681 0.07896734 -0.07502144 -0.059311755 0.06550342 -0.013069922
0.019688789 0.013180118 -0.050371956 0.073274136 0.0067899297 0.049160603 0.026051113 0.050341144
-0.01832837 -0.038916834 -0.06704539 -0.0072233398 -0.011385983 0.0019168752 -0.045841563 0.06448884
-0.059761047 0.029744457 0.022537716 -0.06680011 -0.038434453 0.03744416 -0.079781726 0.07825465
0.05373235 0.029773617 0.06926446 -0.0037366129 0.048358094 -0.057417206 -0.071765594 0.048522733
-0.03404397 -0.06683338 0.0750434 -0.07647157 0.011483178 -0.083684 0.060646858 -0.02228985
-0.018082835 0.0560156 -0.036865428 0.0074639316 -0.038594693 -0.07335426 -0.080511026 -0.087282114
0.067265786 -0.025325574 0.0012195534 0.008984861 -0.080170296 -0.03166368 -0.018284874 -0.0801392
0.07099497 -0.010556796 -0.086759806 -0.03897688 0.01726423 -0.018383976 0.023970427 0.076529756
0.045846425 0.08717672 -0.06478049 -0.014495273 0.061809175 0.09106236 0.00790855 0.03520552
0.02132635 0.037241228 0.05495593 0.023900667 -0.07268875 -0.05120056 0.050885733 0.043096
0.021222133 0.06900232 0.0034229523 -0.07549122 0.051218085 -0.060732152 -0.04439391 -0.0032355075
0.02734227 0.034772847 -0.03917958 0.09244041 0.024983183 0.07521945 0.037381634 -0.06686626
